models/predict-FNet-data-ETTh1/model.pth (torch, 70243 bytes, 22 tensors)

encoder.0.mlp.0.weight f4 [512, 7]
0	0x3e8e49e0	0.27790737
1	0xbdab6213	-0.083683155
2	0x3b4274da	0.00296717
3	0xbdd88596	-0.105723545
4	0xbe98006f	-0.2968783
5	0xbcd51d72	-0.026015017
6	0xbb1195c7	-0.0022214518
7	0x3d847afe	0.064687714
8	0x3e9225e5	0.28544536
9	0xbe72b0c1	-0.23700239
10	0x3ec02b7f	0.37533185
11	0x3d45bec9	0.04827765
12	0xbe2b67a8	-0.1673876
13	0xbe96a6e4	-0.29424202
14	0xbe4d4c69	-0.2004868
15	0x3e877236	0.26454324
16	0x3e4c972c	0.19979542
17	0x3e8b6609	0.27226284
18	0x3e7ec877	0.24881159
19	0x3e50e016	0.20397982
20	0xbe83ee56	-0.25767773
21	0xbb3352e2	-0.0027362634
22	0x3e3167ce	0.17324755
23	0x3cf235b8	0.02956663
24	0x3cad6564	0.02116651
25	0x3e7cfc52	0.24705628
26	0xbe945b9f	-0.2897615
27	0x3e87ef19	0.26549605
28	0x3e0ba4f4	0.13637143
29	0x3c9928ab	0.01869615
30	0x3e0d44da	0.13795796
31	0xbe89af6e	-0.26891655
32	0x3e8da855	0.2766749
33	0xbe6b3a80	-0.22971535
34	0x3e171549	0.14754213
35	0xbe1566f2	-0.14590052
36	0xbe679505	-0.2261544
37	0xbe7df09c	-0.24798816
38	0xbefeb18f	-0.4974484
39	0x3e68ade0	0.22722578
40	0x3e13f02a	0.14447084
41	0xbe8045fa	-0.25053388
42	0xbded876c	-0.11598095
43	0xbe9d2197	-0.3068969
44	0x3e9bebc3	0.3045331
45	0xbe40a70e	-0.18813726
46	0x3eb62be0	0.3558035
47	0xbd7ac93c	-0.06122707
48	0x3e3a1b52	0.18174484
49	0x3d171c4c	0.03689222
50	0x3ea37fa6	0.31933326
51	0xbe2bc495	-0.16774209
52	0xbcb23da9	-0.021757917
53	0x3db11791	0.08647073
54	0xbe5b8c3f	-0.21440218
55	0x3d057b04	0.03258802
56	0x3d558a04	0.052133575
57	0x3e934cd4	0.28769553
58	0xbe199465	-0.14998014
59	0xbe881175	-0.2657582
60	0x3ebe2e2f	0.3714461
61	0x3d9a6a31	0.07539786
62	0x3e7530c6	0.23944387
63	0x3eaba503	0.3352433
64	0xbed55c43	-0.41671953
65	0x3dd89602	0.10575487
66	0xbd96de1b	-0.07366582
67	0x3e4f997c	0.20273393
68	0xbe42b312	-0.19013622
69	0x3db8e50e	0.09028064
70	0x3e061907	0.13095485
71	0x3c8ae4db	0.01695483
72	0x3e185819	0.14877357
73	0x3ee498d1	0.4464784
74	0xbe49fdac	-0.19725674
75	0x3d14f041	0.036361936
76	0x3e77f19a	0.24213257
77	0x3bd45c41	0.006480724
78	0x3c2ccb4d	0.010546518
79	0xbd9f4d37	-0.077783994
80	0xbe832816	-0.2561652
81	0x3de3ff84	0.1113272
82	0x3e7ab56e	0.24483272
83	0xbd7a2913	-0.061074328
84	0xbd5281d7	-0.051393356
85	0xbe5c3ef8	-0.21508396
86	0x3e5468af	0.20743059
87	0x3ea63ba9	0.32467392
88	0x3dadd2c9	0.0848747
89	0xbeacd327	-0.33754846
90	0xbebeacc6	-0.3724119
91	0xbdbcf7d3	-0.09226956
92	0xbe0b00f5	-0.13574584
93	0x3eb918fd	0.36151877
94	0xbec0b1ec	-0.37635744
95	0xbe28102d	-0.1641242
96	0xbdbe7b9a	-0.09300919
97	0x3d242e8f	0.040083464
98	0x3eb09f8f	0.34496734
99	0x3eb54cf6	0.3541028
100	0xbd163817	-0.036674585
101	0x3dbac18c	0.091189474
102	0xbe486273	-0.19568805
103	0x3e84a2c1	0.2590542
104	0xbec5d19a	-0.38636476
105	0x3e801dbf	0.25022694
106	0x3d58fdbc	0.052976355
107	0xbe9105c0	-0.283247
108	0x3e292fde	0.16522166
109	0x3dc7c933	0.097551726
110	0x3e111ba0	0.14170694
111	0x3d1dc512	0.03851802
112	0x3e496d88	0.19670689
113	0x3ebd574b	0.36980662
114	0x3ea187cf	0.31548926
115	0x3d050c44	0.0324824
116	0xbed03aa9	-0.40669754
117	0xbec048a3	-0.37555417
118	0xbea4efa0	-0.3221407
119	0xbd9e84b9	-0.077401586
120	0xbed0a5ad	-0.407514
121	0x3e955af5	0.29170957
122	0x3e8ba07f	0.27270886
123	0xbe089ef8	-0.13341892
124	0xbeacfe86	-0.33787936
125	0xbdfcbcc1	-0.123406895
126	0x3eaf307e	0.34216684
127	0x3e5e4771	0.2170694
128	0x3dc61994	0.096728474
129	0xbeee482a	-0.46539432
130	0xbe5b9a5f	-0.21445607
131	0x3e63a35e	0.22230288
132	0x3eb54cd8	0.3541019
133	0x3e0c3236	0.13691029
134	0xbe46709e	-0.19378898
135	0x3c09f58c	0.008420359
136	0xbe923cfb	-0.2856215
137	0x3dc591bf	0.096469395
138	0xbdd24460	-0.10266948
139	0xbd84b89c	-0.06480524
140	0x3d774038	0.06036398
141	0x3de969c8	0.11397129
142	0x3e48acfa	0.19597235
143	0xbe350e9c	-0.17681354
144	0x3e51dbfb	0.20494072
145	0x3ec0eece	0.37682194
146	0xbdf42896	-0.11921804
147	0xbe8baf70	-0.27282286
148	0x3e96a21b	0.29420552
149	0x3e140242	0.14453986
150	0x3e8d4df3	0.27598533
151	0xbebd3847	-0.36957
152	0xbcdef399	-0.027215766
153	0x3eaeb1af	0.34119937
154	0x3eaa3d29	0.33249786
155	0xbecd4a77	-0.40095875
156	0xbe6dfc4e	-0.23240778
157	0x3da85a65	0.082203664
158	0x3e85537a	0.2604025
159	0x3e994f97	0.29943535
160	0x3eb698a4	0.3566333
161	0x3e21e984	0.15811735
162	0x3e2832d1	0.16425635
163	0xbec08e3a	-0.3760851
164	0xbe26001b	-0.16210978
165	0x3ec5fc68	0.38669133
166	0x3e84f7e8	0.25970387
167	0x3deaddc9	0.114680834
168	0x3d15e803	0.036598217
169	0xbe61cb07	-0.22050105
170	0xbe57291c	-0.21011776
171	0x3e2f882f	0.17141794
172	0xbe87823b	-0.26466545
173	0x3da94367	0.08264809
174	0xbe75b427	-0.23994504
175	0xbe0bbe9c	-0.1364693
176	0x3d4193d8	0.047260135
177	0xbe97db92	-0.29659706
178	0xbe659cc2	-0.2242308
179	0x3e1d864f	0.15383266
180	0x3e4ec09f	0.20190667
181	0x3dd1e3c4	0.10248521
182	0xbeb86682	-0.36015707
183	0xbd40dad0	-0.047083676
184	0x3eba1ee5	0.36351696
185	0x3e15716e	0.14594051
186	0xbe6395ce	-0.22225115
187	0xbe9cad5e	-0.3060102
188	0x3ea18542	0.3154698
189	0xbe0f8002	-0.14013675
190	0x3ea5401a	0.32275468
191	0x3eaafc90	0.33395815
192	0xbe7bdbcd	-0.24595566
193	0x3c2d60f4	0.010582197
194	0xb9677622	-0.00022073885
195	0xbda5558c	-0.080729574
196	0x3e6d72c2	0.23188308
197	0xbecfb49c	-0.40567482
198	0xbe71d7d1	-0.23617484
199	0xbe8352ed	-0.25649205
200	0x3ec2f7e9	0.38079765
201	0x3edc25b7	0.42997524
202	0x3e983903	0.29730996
203	0xbe6bec9c	-0.23039478
204	0x3da2a44b	0.07941493
205	0xbe2cda3b	-0.16880123
206	0x3e9214b7	0.2853143
207	0x3e8ed168	0.2789414
208	0xbcd8bbee	-0.0264568
209	0x3cba94da	0.022776056
210	0x3e0cb88c	0.13742274
211	0x3ea739e6	0.3266136
212	0xbd2c523e	-0.04207062
213	0xbea1f8cc	-0.3163513
214	0x3d658581	0.056035522
215	0x3e1b716c	0.15179986
216	0x3c84a791	0.016193183
217	0xbe9a4c1f	-0.301362
218	0x3e9eb065	0.30993953
219	0x3d50f447	0.05101421
220	0x3dd7eb17	0.10542887
221	0xbe7f0a2d	-0.24906226
222	0x3e58481e	0.2112126
223	0xbd281d7b	-0.04104374
224	0x3e42f09d	0.19037099
225	0x3eaa007a	0.3320349
226	0xbe65be61	-0.22435905
227	0xbce7978d	-0.028270507
228	0x3eae2e63	0.34019765
229	0x3ec08d8a	0.37607986
230	0xbe0707f8	-0.13186634
231	0xbae21b7f	-0.0017250626
232	0xbcee62eb	-0.029099902
233	0x3dcace1e	0.09902595
234	0xbd5b80cb	-0.053589623
235	0x3e3ced50	0.18449903
236	0x3e877b9b	0.2646149
237	0xbed1830b	-0.4092029
238	0x3d80f436	0.062965795
239	0xbe047eea	-0.12939039
240	0x3e09747c	0.13423342
241	0x3e8e6d5c	0.2781781
242	0x3dba6b0d	0.091024496
243	0x3e8fc45e	0.28079504
244	0xbe16c9c4	-0.14725405
245	0x3da4fb04	0.0805569
246	0x3e32f615	0.17476685
247	0xbde2d08c	-0.110749334
248	0xbe6d127b	-0.23151581
249	0xbd395f68	-0.045257002
250	0x3db3e739	0.087843366
251	0x3e29170b	0.16512696
252	0xbe5733a9	-0.210158
253	0xbced89ac	-0.028996311
254	0xbe2c79a9	-0.16843285
255	0x3eac1fde	0.33618063

encoder.0.mlp.0.bias f4 [512]
0	0xbe82b845	-0.25531211
1	0x3de304d5	0.11084906
2	0xbecb6127	-0.3972256
3	0xbde633d6	-0.11240356
4	0x3e7280ee	0.23681995
5	0xbe910e9f	-0.28331468
6	0xbde3ca14	-0.11122528
7	0x3bad554f	0.0052897106
8	0xbda249ef	-0.07924258
9	0xbbf83cee	-0.0075756228
10	0x3e56eb72	0.20988253
11	0xbdda47a0	-0.10658193
12	0x3dd0c4b1	0.10193766
13	0x3e55132b	0.20808093
14	0x3e8eccbd	0.27890578
15	0x3e84c3db	0.25930676
16	0xbe294e93	-0.1653388
17	0xbea400fc	-0.32032
18	0xbec16acd	-0.37776795
19	0xbe60111e	-0.2188153
20	0xbd5bccad	-0.05366199
21	0xbcb8c0fd	-0.022552961
22	0x3d995807	0.07487493
23	0x3db06348	0.086126864
24	0xbe6e87e9	-0.23294033
25	0xbe8ee91b	-0.2791222
26	0xbe0e7ec6	-0.13915548
27	0x3e7cefd9	0.2470087
28	0x3ea05e7b	0.31322083
29	0x3e9e301a	0.30896074
30	0xbe32f16c	-0.17474908
31	0x3e36f20a	0.17865768
32	0x3e4cbad5	0.19993146
33	0x3d84869a	0.06470986
34	0xbe974f2d	-0.29552594
35	0xbe6a2757	-0.2286657
36	0x39916b4d	0.000277365
37	0x3e2a7d31	0.16649319
38	0xbe54add2	-0.20769432
39	0x3e82a317	0.25515053
40	0xbe63b185	-0.22235687
41	0xbdcbbe33	-0.09948387
42	0x3e8c86f6	0.27446717
43	0x3d059523	0.03261293
44	0x3e0a09cd	0.13480301
45	0xbebddc6e	-0.37082237
46	0x3ea16fe7	0.31530687
47	0xbd30ba8c	-0.043146655
48	0x3e8d5a4f	0.27607962
49	0x3eb35ec9	0.35033253
50	0x3eaf776d	0.34270802
51	0xbe4e65e0	-0.2015605
52	0xbccf5b3a	-0.025312055
53	0x3db2dc68	0.087334454
54	0x3e9481d8	0.29005313
55	0x3e3bf34c	0.18354529
56	0x3e093c65	0.13401945
57	0xbe9d97c8	-0.30779862
58	0xbdf2795c	-0.11839554
59	0xbdafd658	-0.08585805
60	0x3c9825d4	0.018572725
61	0x3e179faf	0.14807008
62	0x3cbdb96e	0.023159709
63	0x3e84cfc7	0.25939772
64	0x3d86ebeb	0.065879665
65	0x3e91cffe	0.28478998
66	0xbe905a3f	-0.28193852
67	0x3e246130	0.16052699
68	0xbece9d7b	-0.40354523
69	0xbe7a372a	-0.24435106
70	0xbe2c6add	-0.1683764
71	0x3e804d73	0.2505909
72	0x3cbcf1a7	0.023064448
73	0xbe81abf6	-0.25326508
74	0xbdf72d7c	-0.12069222
75	0x3da2a667	0.07941895
76	0x3e5118d6	0.2041963
77	0x3e672bc8	0.22575295
78	0xbdfd355b	-0.123636924
79	0xbe8e8021	-0.2783213
80	0xbe5523d5	-0.2081445
81	0xbe987fd9	-0.2978504
82	0x3e5ee000	0.21765137
83	0xbda5e980	-0.08101177
84	0xbd16bb03	-0.036799442
85	0xbda2ee1a	-0.079555705
86	0x3e4766fb	0.19472878
87	0xbda669e8	-0.08125669
88	0xbd3a4c0d	-0.045482684
89	0xbe2f059c	-0.17091984
90	0xbe25fc59	-0.16209544
91	0xbeacfb6a	-0.33785564
92	0xbe7522d5	-0.23939069
93	0xbe99664f	-0.29960868
94	0x3e87896a	0.26472026
95	0xbe956fd3	-0.29186878
96	0xbe9e5f4c	-0.3093208
97	0xbe681721	-0.22665073
98	0xbebca93e	-0.36847872
99	0xbe9ac37b	-0.30227265
100	0x3d80980c	0.06279001
101	0xbe1c9109	-0.15289702
102	0xbe05ae37	-0.13054739
103	0x3def5f61	0.11688114
104	0x3e3328d5	0.17496045
105	0xbe3b4ff3	-0.18292217
106	0x3caa435c	0.020784073
107	0xbe1b7949	-0.15182985
108	0x3db5fa3e	0.088856205
109	0xbd1ea01d	-0.038726915
110	0x3c9f28d4	0.019428648
111	0xbc7099fd	-0.014685151
112	0xbeb384de	-0.35062307
113	0xbd570381	-0.052493576
114	0xbed884dc	-0.42288864
115	0xbebf742b	-0.37393317
116	0x3d3dff6a	0.04638616
117	0xbc3e2ba3	-0.0116070835
118	0xbde88ce8	-0.11355001
119	0xbeb08346	-0.34475154
120	0x3e98436d	0.29738942
121	0xbd8ceb53	-0.06880822
122	0xbebb9494	-0.36636794
123	0xbc8dbdd8	-0.017302439
124	0xbdfa6bda	-0.12227602
125	0x3e17ccdf	0.14824246
126	0xbde9215d	-0.11383317
127	0x3ea164fc	0.31522357
128	0x3e7275ed	0.23677798
129	0x3e280309	0.16407408
130	0xbbccfdcc	-0.006255841
131	0xbdc0f881	-0.09422398
132	0xbe7241ab	-0.23657863
133	0x3e89a165	0.26880947
134	0xbeca8b7f	-0.39559552
135	0xbddfe9c9	-0.10933263
136	0x3e353501	0.17696
137	0xbcb831fd	-0.022484774
138	0xbe5ea21a	-0.21741524
139	0x3ce562fa	0.028001297
140	0xbe0eb360	-0.13935614
141	0xbd90c9d0	-0.07069743
142	0xbe16aea4	-0.14715058
143	0xbd70eb48	-0.05881813
144	0x3d3b864c	0.045782372
145	0xbd2a8e9a	-0.0416399
146	0x3e9beb03	0.30452737
147	0xbe022530	-0.12709498
148	0xbb9ffdbf	-0.004882544
149	0x3e8dd217	0.27699348
150	0x3eb29a41	0.3488331
151	0x3e0aa64c	0.1354
152	0xbeaf274f	-0.34209678
153	0x3dcf19a0	0.101123095
154	0x3e75d3ca	0.24006572
155	0xbce16083	-0.02751184
156	0x3e2f0c24	0.17094475
157	0xbec14e77	-0.37755176
158	0xbe5075f6	-0.20357499
159	0x3e573657	0.21016823
160	0x3ddaeb3d	0.106893994
161	0xbe6526dd	-0.22378106
162	0x3e96a89a	0.29425508
163	0xbe922165	-0.28541103
164	0x3e853d95	0.26023546
165	0xbe4927da	-0.19644108
166	0x3d92e0cd	0.071717836
167	0xbec4061e	-0.38285917
168	0x3e0fbdad	0.140372
169	0x3c614c17	0.013751051
170	0xbe1dbbcb	-0.15403669
171	0xbdafc52f	-0.08582532
172	0xbecc9634	-0.39958346
173	0x3e94b306	0.29042834
174	0xbe7e210d	-0.24817295
175	0xbd15e1a2	-0.036592133
176	0xbe84be75	-0.25926557
177	0xbe3604eb	-0.17775314
178	0xbe6a00b2	-0.22851828
179	0x3e61b4dc	0.22041649
180	0x3e617e96	0.22020945
181	0xbeb0638f	-0.34450957
182	0xbe8bf76e	-0.2733721
183	0x3e864632	0.2622543
184	0xbeb153cf	-0.34634253
185	0x3e0ed35b	0.13947813
186	0xbe5339c0	-0.20627499
187	0x3e67dd90	0.22643113
188	0x3d4940c6	0.04913404
189	0x3dd6d351	0.10489524
190	0x3d7346e7	0.05939379
191	0x3db56c0e	0.088585004
192	0x3e670da4	0.22563797
193	0xbe95bdf3	-0.29246482
194	0xbe80c6ae	-0.2515158
195	0x3e1c62a2	0.15272
196	0xbdc5474e	-0.09632741
197	0x3e19c233	0.15015487
198	0x3d34caf1	0.044138853
199	0xbce4696a	-0.027882297
200	0xbe6da379	-0.23206891
201	0xbd80af72	-0.062834635
202	0xbe9ca715	-0.30596223
203	0x3e9b04cb	0.30277094
204	0x3e25c65c	0.1618895
205	0x3e6f73ec	0.23384064
206	0x3dc11bf4	0.0942916
207	0xbd86cc32	-0.06581916
208	0xbe8cad3e	-0.27475923
209	0xbdbe8db3	-0.09304371
210	0xbe627554	-0.2211507
211	0x3ddb57de	0.10710119
212	0xbe545b74	-0.20738012
213	0x3ddbe465	0.10736922
214	0x3dc4e621	0.09614206
215	0x3df7a58f	0.12092125
216	0x3ddaa2be	0.10675572
217	0xbe99eb2b	-0.3006223
218	0x3ea94e62	0.33067614
219	0xbd4f67a0	-0.050635934
220	0xbe9403d5	-0.28909174
221	0x3e9b9972	0.30390507
222	0x3e48a1fc	0.19593042
223	0xbe8916f6	-0.2677533
224	0x3dd4a903	0.10383799
225	0xbd8746ba	-0.06605287
226	0x3e8073a1	0.25088218
227	0xbe93ae22	-0.2884379
228	0xbeb08719	-0.3447807
229	0x3e0017b0	0.12509036
230	0xbcb269f9	-0.021779047
231	0xbea31fab	-0.31860098
232	0xbc804ef6	-0.015662652
233	0x3e9470ef	0.28992411
234	0x3dd7993a	0.105272725
235	0x3e5072ae	0.20356247
236	0xbe2dc1f2	-0.16968516
237	0x3e1f176d	0.1553628
238	0x3e4516c7	0.1924697
239	0xbe57a012	-0.21057156
240	0x3dbcc653	0.09217515
241	0xbe95ae26	-0.29234427
242	0xbd68c6ee	-0.05683034
243	0xbeaae2c1	-0.33376125
244	0x3e5abaeb	0.21360366
245	0x3e84095a	0.25788385
246	0xbe9f97f4	-0.3117062
247	0xbe8e763c	-0.2782458
248	0x3e874aa7	0.26424143
249	0xbe92accf	-0.28647467
250	0xbdba462e	-0.09095417
251	0xbe55d3a8	-0.20881522
252	0xbe932cb5	-0.28745046
253	0xbe654cd9	-0.22392596
254	0x3e177c55	0.14793523
255	0xbeba1df5	-0.3635098

encoder.0.mlp.2.weight f4 [7, 512]
0	0xbcf7e186	-0.030258905
1	0x3d1723a7	0.036899235
2	0xbbbbf97f	-0.0057365294
3	0xbd587499	-0.05284557
4	0x3d002541	0.031285528
5	0xbc5e4ce6	-0.013568139
6	0x3de9f10d	0.1142293
7	0xbd397438	-0.04527685
8	0xbd1821b7	-0.037141528
9	0x3d7f6629	0.062353287
10	0x3cf7f322	0.030267302
11	0xbbeee2ca	-0.007290219
12	0x3e1657b0	0.14681888
13	0x3d678e84	0.056532398
14	0xbd49d400	-0.049274445
15	0xbc79f5b7	-0.015256337
16	0x3d379ba6	0.044826172
17	0x3e050253	0.12989168
18	0x3b9b97af	0.0047483067
19	0x3c5631d6	0.013073405
20	0x3ccdfffe	0.02514648
21	0xbd949252	-0.07254471
22	0x3d0ba466	0.03409233
23	0x3cb3f498	0.021967217
24	0x3cb3a431	0.021928879
25	0xbc5b31af	-0.013378545
26	0xbcfd2f20	-0.03090626
27	0x3d1ead33	0.038739394
28	0xbc0b017b	-0.00848424
29	0x3cfb6fbb	0.030692926
30	0xbcc3686a	-0.0238535
31	0x387945aa	5.9431106e-05
32	0xbd8184af	-0.063241355
33	0x3cd81e97	0.026381774
34	0x3d061a3d	0.032739867
35	0xbd90907c	-0.07058808
36	0x3d61f3d0	0.05516416
37	0xba5b0dcb	-0.00083562423
38	0x3d9d9471	0.076943286
39	0x3bae8c8c	0.005326813
40	0x3d038655	0.03211053
41	0x3d33b1b2	0.043870635
42	0xbd2084ef	-0.039189275
43	0x3d18b8cf	0.037285622
44	0x3d347c29	0.04406372
45	0xbd7751bf	-0.060380694
46	0x3d3811cd	0.04493885
47	0xbe0bfc17	-0.13670383
48	0x3d3d3f01	0.046202663
49	0x3d108383	0.03528167
50	0x3d260331	0.040530387
51	0x3dc1c9df	0.09462332
52	0x3ca18268	0.019715503
53	0x3d587d49	0.052853856
54	0x3d557905	0.052117366
55	0xbb85bee2	-0.004081593
56	0xbc9c5fbc	-0.019088618
57	0x3cad4a17	0.021153493
58	0xbcc267af	-0.02373108
59	0xbd3f58dd	-0.046715606
60	0xbd0ce069	-0.0343937
61	0x3ca50359	0.020143198
62	0x3c98c276	0.018647414
63	0x3b34ece5	0.002760702
64	0xbd8dc786	-0.06922822
65	0x3d1191a1	0.035539273
66	0x3a7c39fc	0.00096216775
67	0xbcfd253c	-0.030901544
68	0x3d25c9ef	0.040475782
69	0xbcdae579	-0.02672075
70	0xbd439985	-0.04775383
71	0x3d569fb4	0.0523984
72	0x3c0b7ee3	0.008514139
73	0xbbd740c1	-0.0065689986
74	0x3c5d52fd	0.0135085555
75	0xbd404dcc	-0.046949193
76	0x3c8d35e6	0.017237615
77	0x3ae87bbe	0.0017737073
78	0xbc139562	-0.009007784
79	0xbd0a6a4d	-0.033792783
80	0xba464218	-0.00075629493
81	0x3d377d0f	0.044797
82	0x3d41ac54	0.047283486
83	0x3d1ef53c	0.038808092
84	0x3d12d0f2	0.035843797
85	0xbcf8359f	-0.030299006
86	0x3da34212	0.07971586
87	0x3d7880ee	0.060669832
88	0x3e373180	0.17889977
89	0x3d13ece7	0.0361146
90	0xbcff1a1b	-0.031140378
91	0x3bfe4e87	0.007760826
92	0x3d6a0e79	0.05714271
93	0xbd5ae805	-0.053443927
94	0xba40e519	-0.0007358357
95	0xbc20555f	-0.009785979
96	0x3d4a6497	0.049412336
97	0x3c778dce	0.0151094925
98	0xbc3deeee	-0.01159261
99	0x3d82ce7f	0.06387042
100	0x3d090f40	0.03346181
101	0x3d85a4db	0.06525584
102	0xbc8d815c	-0.017273597
103	0x3c4a3f60	0.012344211
104	0xbd118f5c	-0.03553711
105	0xbc647e47	-0.0139461225
106	0x3cff14aa	0.031137783
107	0x3d296f4a	0.0413659
108	0xbda24945	-0.07924131
109	0x3d8b4101	0.06799508
110	0x3dfcc63e	0.12342499
111	0x3dd5f55e	0.10447191
112	0xbd9f3ef0	-0.07775676
113	0xbd1686a6	-0.036749505
114	0xbb6d49c8	-0.0036207307
115	0xbd7e87f3	-0.06214137
116	0x3c0a2f39	0.00843411
117	0xbd72557a	-0.059163548
118	0xbe13d2dc	-0.14435905
119	0x3d92245c	0.07135841
120	0x3cf00a8a	0.0293019
121	0xbcc90cf9	-0.024542319
122	0xbdbc02b7	-0.09180205
123	0x3db098ec	0.086229175
124	0xbca37d2c	-0.019957148
125	0xbcbb1855	-0.02283875
126	0xbd30b504	-0.04314138
127	0x3d041fb2	0.03225679
128	0x3ccc13e3	0.024911826
129	0x3a1bd432	0.00059444003
130	0x3c087a9c	0.008330014
131	0xbcf62d51	-0.030050905
132	0x3c3b042a	0.011414567
133	0xbc589858	-0.013219915
134	0xbc50a449	-0.012734481
135	0x3d68d077	0.056839433
136	0x3c3c0adc	0.011477198
137	0x3b91ed46	0.004453334
138	0x3c31980d	0.010839474
139	0xbcc3402c	-0.02383431
140	0xbca06363	-0.019578641
141	0x3cfc78fc	0.030819409
142	0x3d2e085b	0.042488437
143	0x3cfc49cb	0.030796906
144	0x3d68e5fd	0.05685996
145	0x3cd44461	0.025911512
146	0x3cf12283	0.029435402
147	0x3cb25c11	0.021772416
148	0x3c99a5e0	0.018755853
149	0x3d984a63	0.07436063
150	0x3d80405b	0.06262275
151	0x3d282fea	0.04106132
152	0xbd09f242	-0.0336783
153	0xbda9dc67	-0.082939915
154	0x3cc9404b	0.02456679
155	0xbae2d25f	-0.0017305127
156	0x3d1c8985	0.038217086
157	0x3bc5246c	0.0060163047
158	0xbd371772	-0.044700094
159	0xbcc69f10	-0.024245769
160	0x3d20642c	0.03915803
161	0xbc9cba53	-0.019131815
162	0x3d9165bb	0.07099482
163	0xbd1b3e93	-0.037901472
164	0x3cc6fa56	0.024289291
165	0xbdd2e276	-0.102971
166	0x3c80b49e	0.015711125
167	0xbc7bcebf	-0.015369116
168	0x3d879337	0.06619876
169	0x3d48fb1f	0.049067613
170	0x3d8d5b2a	0.06902154
171	0x3ca55c61	0.020185651
172	0xbd74d1de	-0.059770457
173	0xbcb29530	-0.021799654
174	0xbda60e63	-0.08108213
175	0xbd816f33	-0.06320038
176	0xbd95343f	-0.07285356
177	0xbda4d48a	-0.08048351
178	0x3dd87ac8	0.10570294
179	0x3bc2dc66	0.0059466837
180	0xbcc7792f	-0.024349777
181	0xbc8412bc	-0.016122214
182	0x3ca53aea	0.020169694
183	0x3da8a98d	0.08235464
184	0x3cad3de3	0.021147674
185	0x3d3a744b	0.045521062
186	0x3ba95ec0	0.005168766
187	0x3bd8460c	0.006600147
188	0x3d56f9a8	0.052484185
189	0xbd80d916	-0.06291406
190	0x3cc94008	0.024566665
191	0x3e2587ee	0.16165134
192	0x3d01f8e7	0.031731512
193	0xbdfc29da	-0.1231267
194	0xbd42b066	-0.047531508
195	0x3d909fb2	0.070617095
196	0xbcd4ddec	-0.025984727
197	0xbbf6dc26	-0.007533568
198	0xbb0a1e9e	-0.0021075378
199	0xbd022f20	-0.031783223
200	0xbc890aa8	-0.016728714
201	0x3cb23e11	0.021758111
202	0xbd217bc1	-0.03942466
203	0x3d873982	0.066027656
204	0x3c191c79	0.009345167
205	0x3c33a126	0.010963714
206	0x3c89937c	0.016793959
207	0x3d36b1db	0.04460321
208	0xbb93e843	-0.0045137717
209	0x3c1e2893	0.009653228
210	0xbd17dc9b	-0.03707562
211	0xbd35f072	-0.04441876
212	0x3c4991ed	0.012302858
213	0xbc7ae1d8	-0.015312634
214	0x3d8fdba0	0.07024312
215	0xbd2a2385	-0.04153778
216	0xbdb2c339	-0.08728642
217	0xbd1288c6	-0.03577497
218	0xbcbdd60e	-0.023173358
219	0xbd50e6a9	-0.051001225
220	0xbd48aeb4	-0.048994735
221	0xbcdc9c2f	-0.026929943
222	0xbc902ad8	-0.017598554
223	0x3d10f9da	0.035394527
224	0xbd93485e	-0.07191537
225	0xbc394cdc	-0.011309829
226	0xbcc8b06d	-0.024498189
227	0x3d0f45d7	0.034978714
228	0xbca9bb25	-0.02071912
229	0xbda35c96	-0.07976644
230	0x3d1093e8	0.035297304
231	0xbc5a1a73	-0.01331197
232	0x3c97794a	0.018490452
233	0x3d62e66d	0.055395532
234	0x3db625ca	0.088939264
235	0x3d522ffb	0.05131529
236	0x3de2ae67	0.11068421
237	0x3ce5c31a	0.028047133
238	0x3d55a7c8	0.05216196
239	0xbd58c458	-0.052921623
240	0x3c08bb7d	0.008345482
241	0xbd66e1c1	-0.05636764
242	0x3d64f0a5	0.05589356
243	0xbdbee8a0	-0.093217134
244	0x3be48c2f	0.006974719
245	0xbc98a04a	-0.01863112
246	0xbbf44b77	-0.007455285
247	0xb91e9fbb	-0.00015127558
248	0x3c84182e	0.016124811
249	0x3d99485a	0.07484503
250	0xbda85990	-0.08220208
251	0xbd833c2b	-0.064079605
252	0xbd1e6498	-0.038670152
253	0xbc5724ba	-0.013131315
254	0x3bef33d0	0.0072998777
255	0xbc847c6b	-0.016172608

encoder.0.mlp.2.bias f4 [7]
0	0x3c3bc74a	0.011461088
1	0x3c3ad1d4	0.011402566
2	0xbd92686c	-0.07148823
3	0xbae3eff2	-0.0017390235
4	0x3c28700d	0.010280621
5	0xbd9ef3c8	-0.07761341
6	0x3cd1c8a5	0.02560837

encoder.0.norm_1.weight f4 [7]
0	0x3f5d980e	0.8656014
1	0x3f88a730	1.0676022
2	0x3f83f403	1.0308841
3	0x3f8b3277	1.0874776
4	0x3f83e9a0	1.0305672
5	0x3f8e8af8	1.113616
6	0x3f84fd1b	1.0389742

encoder.0.norm_1.bias f4 [7]
0	0x3d3559a4	0.04427494
1	0xbd24d65a	-0.040243484
2	0xbd5eace2	-0.054364093
3	0x3d1a2d7d	0.037641037
4	0x3cfbcc27	0.030736996
5	0xbcd10c74	-0.025518633
6	0x3c148e0b	0.009067069

encoder.0.norm_2.weight f4 [7]
0	0x3f85c2e7	1.0450104
1	0x3f7aea2f	0.98013586
2	0x3f834c0f	1.0257586
3	0x3f830867	1.0236939
4	0x3f775eb6	0.9662889
5	0x3f877ee3	1.0585598
6	0x3f7f5eb0	0.99753857

encoder.0.norm_2.bias f4 [7]
0	0x3da5c098	0.08093375
1	0x3c09ab41	0.0084026465
2	0xbd885d50	-0.06658423
3	0x3d319fad	0.04336517
4	0x3ab6412c	0.0013904921
5	0xbbabacca	-0.005239104
6	0x3cfc2a60	0.030781925

encoder.1.mlp.0.weight f4 [512, 7]
0	0xbe222fb7	-0.15838514
1	0x3dfb4dfa	0.12270732
2	0x3e7484c5	0.23878773
3	0x3e1de748	0.15420258
4	0x3e7a25f8	0.24428546
5	0xbdbe4cb3	-0.09291973
6	0xbe8f340a	-0.2796939
7	0xbbdd64fa	-0.006756422
8	0x3e586cb6	0.2113522
9	0xbe028c19	-0.12748756
10	0xbe5eb837	-0.2174996
11	0xbe14b0e5	-0.14520605
12	0xbe4d4798	-0.20046842
13	0x3e27664e	0.1634762
14	0x3e6bee3b	0.23040096
15	0xbe49201d	-0.19641156
16	0xbe3a472a	-0.1819121
17	0x3e866047	0.2624533
18	0xbea7037f	-0.32619855
19	0xbeb1c3d5	-0.3471972
20	0x3dce0147	0.100588374
21	0xbd2c2157	-0.042023983
22	0xbeaf8434	-0.3428055
23	0xbe244528	-0.16042006
24	0x3eac6584	0.336712
25	0xbeb1684d	-0.34649888
26	0xbe29bf2e	-0.16576836
27	0x3d98c375	0.074591555
28	0xbe3c46e9	-0.18386425
29	0x3ea65c18	0.32492137
30	0xbeac63a0	-0.33669758
31	0xbe642c0b	-0.22282426
32	0x3e726823	0.23672538
33	0xbe9e3221	-0.3089762
34	0xbe81fa82	-0.25386435
35	0x3e4a3565	0.19746931
36	0x3ea2a38e	0.31765407
37	0xbe40f581	-0.18843652
38	0x3e9ac827	0.3023083
39	0xbe99c388	-0.3003199
40	0x3deb5956	0.11491649
41	0xbe9bf935	-0.30463567
42	0xbeacfc1e	-0.337861
43	0xbe43d661	-0.19124748
44	0x3d0832e7	0.03325167
45	0x3e68fc3b	0.22752468
46	0x3dd0ede7	0.10201626
47	0xbee34432	-0.44387966
48	0xbe90c9c1	-0.28278926
49	0x3e56a7b8	0.20962417
50	0x3e866fbd	0.26257125
51	0xbe0543da	-0.13014165
52	0xbe9dbc4f	-0.3080773
53	0xbe5391b6	-0.20661053
54	0x3e0b87b5	0.13625987
55	0xbe3d57f1	-0.18490578
56	0x3ea5344c	0.32266462
57	0xbd8d36cb	-0.068952166
58	0xbd833971	-0.064074405
59	0x3df2d07a	0.1185617
60	0x3e498101	0.19678117
61	0x3c8dc5cd	0.017306233
62	0x3e010364	0.1259895
63	0xbe74d93d	-0.23910995
64	0xbda2a0fd	-0.07940862
65	0xbea163cd	-0.31521454
66	0x3dd63578	0.10459417
67	0xbd858be7	-0.06520825
68	0x3d7510e9	0.05983058
69	0x3d0d1a67	0.034449007
70	0xbec51331	-0.38491204
71	0x3cbbd220	0.022927344
72	0xbeb076aa	-0.34465533
73	0x3d23c92c	0.039986774
74	0x3e30019f	0.17188118
75	0x3d49af6b	0.049239557
76	0x3d244062	0.040100463
77	0x3e570efb	0.21001808
78	0x3e2b1994	0.16708976
79	0xbe2a1a8d	-0.16611691
80	0xbeb0bae9	-0.345176
81	0xbdea4a45	-0.11439947
82	0xbe813894	-0.25238478
83	0x3e2f70af	0.17132829
84	0x3d7d79be	0.06188368
85	0x3e78b98a	0.24289528
86	0x3e7ee40e	0.24891683
87	0x3e34f5ce	0.17671892
88	0x3d512b47	0.051066663
89	0xbc96b257	-0.018395586
90	0x3d513157	0.051072445
91	0x3d4580f1	0.04821867
92	0xbe8914b3	-0.26773605
93	0xbdb88e4f	-0.09011518
94	0xbc97e0e1	-0.018539848
95	0xbd810618	-0.062999904
96	0x3e4415a7	0.19148885
97	0x3e6b23bf	0.22962855
98	0x3ec0f2a5	0.37685123
99	0xbe9466c8	-0.28984666
100	0x3e627a06	0.22116861
101	0xbe70adde	-0.23503825
102	0x3e6541f1	0.22388436
103	0xbcea445d	-0.028597051
104	0xbe82f1e4	-0.25575173
105	0xbdb393fa	-0.08768459
106	0xbd7be11f	-0.06149399
107	0xbd8e2925	-0.069414414
108	0x3eca6538	0.3953035
109	0x3e594af7	0.21220003
110	0xbe819117	-0.25306007
111	0x3e924014	0.28564513
112	0x3c296709	0.010339507
113	0x3ead99c1	0.33906367
114	0xbe426ac1	-0.18986036
115	0xbe01ee4d	-0.12688561
116	0x3e9c3659	0.30510214
117	0x3e7b2ee8	0.24529612
118	0xbe8ac479	-0.27103022
119	0x3e4ae364	0.19813305
120	0xbe3f16b2	-0.18661001
121	0xbeaf4795	-0.342343
122	0xbccc33db	-0.02492707
123	0x3edaa85a	0.42706567
124	0xbdb460a8	-0.08807498
125	0x3e058a00	0.13040924
126	0x3dbba270	0.09161842
127	0xbdf2365e	-0.11826776
128	0x3e3e8db1	0.18608738
129	0xbea83dd0	-0.3285966
130	0x3c8e07f2	0.017337773
131	0x3ea36a86	0.31917208
132	0x3d7cf323	0.06175531
133	0x3e646fe4	0.22308308
134	0xbc5cb052	-0.013469772
135	0xbe6dfef4	-0.23241788
136	0xbec00fd0	-0.37512064
137	0x3e163ccb	0.14671628
138	0xbeb25fa7	-0.34838602
139	0xbe0569f3	-0.13028698
140	0xbe900b82	-0.2813378
141	0xbe6597d0	-0.22421193
142	0x3eca2e13	0.39488277
143	0x3e8d50b5	0.27600637
144	0xbe4660ee	-0.19372913
145	0xbeb51bb6	-0.35372704
146	0x3eaae38a	0.33376724
147	0x3e93071d	0.28716365
148	0xbb2a24b8	-0.0025961827
149	0x3e8c7196	0.2743041
150	0x3de8fa0e	0.11375819
151	0xbd44110d	-0.047867823
152	0xbe80c8a4	-0.25153077
153	0xbe4b0bad	-0.19828673
154	0xbe01433a	-0.12623301
155	0xbeaef812	-0.34173638
156	0xbe0b757d	-0.13619037
157	0xbe720da4	-0.23638016
158	0xbe9eec97	-0.3103988
159	0xbe4d1b50	-0.2002995
160	0xbea27805	-0.31732193
161	0x3dabc0ce	0.08386384
162	0x3e1bb291	0.15204836
163	0xbe9f495a	-0.3111065
164	0x3d5c62ea	0.05380527
165	0xbd9b31a6	-0.07577829
166	0xbed1d5f9	-0.4098356
167	0x3e382327	0.1798216
168	0x3d8a85ae	0.067637786
169	0xbe432c04	-0.1905976
170	0xbbcddfed	-0.0062827975
171	0x3e39f30d	0.18159123
172	0x3dd59f84	0.10430816
173	0x3e15d41b	0.14631693
174	0xbe4c5d63	-0.19957499
175	0x3e48958d	0.19588299
176	0x3e08f071	0.13372971
177	0xbd99cad7	-0.07509392
178	0x3e0e1ada	0.1387743
179	0x3e65a4a6	0.2242609
180	0x3e90b8c7	0.28265974
181	0xbcc56192	-0.024094377
182	0xbe026db1	-0.12737156
183	0x3e0f91ba	0.14020434
184	0x3e539d8e	0.20665571
185	0x3ea86940	0.328928
186	0xbdd0329a	-0.101659015
187	0x3e007c64	0.12547451
188	0x3d7a4a10	0.061105788
189	0x3d9c693e	0.07637261
190	0xbe4f5c13	-0.20249967
191	0x3ebb4395	0.36574998
192	0xbea2b0cb	-0.31775507
193	0x3e171b07	0.14756404
194	0xbe45bae3	-0.19309573
195	0xbdb285ba	-0.087169126
196	0xbe90c46b	-0.28274855
197	0xbec64354	-0.38723242
198	0xbe14bd43	-0.14525323
199	0xbe949bf3	-0.2902523
200	0xbe208fcc	-0.15679854
201	0xbdfbc8ed	-0.12294183
202	0xbc08eeab	-0.008357684
203	0xbd62df41	-0.055388693
204	0x3bd9f93d	0.006652026
205	0x3bccb4da	0.006247145
206	0xbe903c35	-0.28170934
207	0xbe8ab5ba	-0.2709177
208	0x3e99ee48	0.30064607
209	0x3dec6689	0.115429945
210	0x3ebea58b	0.37235674
211	0xbe9d2721	-0.30693915
212	0xbe914a63	-0.28377065
213	0x3e9c295c	0.30500305
214	0x3e4977f3	0.19674663
215	0xbc59f8e6	-0.013303971
216	0x3c950207	0.018189443
217	0x3e7151ac	0.23566312
218	0x3e6e75f2	0.2328718
219	0x3ea1a843	0.31573686
220	0xbe6cb1c0	-0.23114681
221	0x3e8bc0c2	0.272955
222	0xbd51038a	-0.051028766
223	0xbe191c19	-0.14952125
224	0xbe1fb472	-0.15596178
225	0xbe10f81b	-0.14157145
226	0x3d0e4874	0.034737065
227	0xbdf93a26	-0.12169294
228	0x3e1a728a	0.15082756
229	0x3c87679c	0.016528897
230	0xbe3e6b49	-0.18595614
231	0xbd09abcb	-0.0336111
232	0x3e44bf03	0.1921349
233	0xbdaf1b39	-0.08550114
234	0xbd278f2a	-0.040908016
235	0xbeb40dbb	-0.35166726
236	0x3de4d6eb	0.11173805
237	0xbec8d40f	-0.39224288
238	0xbde60760	-0.112318754
239	0xbdaf5f28	-0.085630715
240	0xbe0cdbf5	-0.13755782
241	0xbe1aa315	-0.15101273
242	0x3eabeb4d	0.33577958
243	0x3e5ccf2e	0.21563408
244	0x3ea0feb9	0.31444338
245	0x3e2f5650	0.1712277
246	0xbea2e0f1	-0.31812242
247	0xbe9a67a6	-0.30157202
248	0xbd12f1e2	-0.03587521
249	0xbe20fff0	-0.15722632
250	0xbd216ba8	-0.03940931
251	0x3e70b96e	0.23508236
252	0xbd94d1a6	-0.0726655
253	0x3d99052a	0.07471688
254	0xbe877d5d	-0.26462832
255	0x3c96abb7	0.018392427

encoder.1.mlp.0.bias f4 [512]
0	0xbeb8e0c4	-0.36108983
1	0x3e2ffaa0	0.1718545
2	0xbd32319a	-0.043504335
3	0x3e935c59	0.28781393
4	0x3e2fdf46	0.17175016
5	0xbdbc532d	-0.09195552
6	0x3dc54000	0.09631348
7	0xbe92d60c	-0.2867893
8	0x3e215a1f	0.15757035
9	0x3e44a2c6	0.19202718
10	0xbdfc4f52	-0.12319817
11	0xbea7496d	-0.32673207
12	0xbdf923d4	-0.12165037
13	0xbe8d90d9	-0.27649572
14	0x3e4c2733	0.19936828
15	0x3e9ba30d	0.30397835
16	0xbe991dcc	-0.29905546
17	0xbd273a03	-0.04082681
18	0x3e77396a	0.24142995
19	0xbe9a3f58	-0.30126452
20	0x3e27ba2c	0.16379613
21	0x3da01498	0.07816428
22	0x3e711fa5	0.23547228
23	0xbe495b6b	-0.1966378
24	0xbe0952d4	-0.13410503
25	0xbc33a138	-0.0109637305
26	0xbe7415b2	-0.23836401
27	0xbe284d02	-0.16435626
28	0xbe8e962d	-0.2784895
29	0x3e9ca5b3	0.30595168
30	0x3e46300c	0.19354266
31	0xbd6b0bbc	-0.057384238
32	0x3e316099	0.17322005
33	0x3d212b86	0.039348148
34	0xbe3f8759	-0.18703975
35	0x3d752dc1	0.059858087
36	0xbe6819e6	-0.2266613
37	0xbe143aa8	-0.144755
38	0x3e776000	0.24157715
39	0x3eab658e	0.33475918
40	0x3ea6ee29	0.32603577
41	0x3e45179c	0.19247288
42	0xbea1a053	-0.3156763
43	0x3e054bbf	0.13017176
44	0xbe696d9e	-0.22795722
45	0xbe638169	-0.22217335
46	0xbeacca56	-0.3374812
47	0xbe50480c	-0.20339984
48	0x3e2096c8	0.15682518
49	0x3e8e2e8d	0.2776989
50	0xbe3bbbdc	-0.18333381
51	0x3dbcc08b	0.09216412
52	0x3e4a1ad7	0.19736801
53	0xbe62d103	-0.22150044
54	0xbe8882d2	-0.26662308
55	0xbd95e932	-0.07319869
56	0xbda01432	-0.07816352
57	0x3e30db48	0.17271149
58	0xbe4648d5	-0.1936372
59	0xbe1bdd80	-0.15221214
60	0x3dfdc983	0.12391951
61	0xbe87bc22	-0.2651072
62	0xbe945697	-0.28972313
63	0xbd1ff53e	-0.03905224
64	0x3e6571e7	0.22406732
65	0x3e511ca3	0.2042108
66	0x3df9a7f6	0.12190239
67	0xbe8f8ee0	-0.28038692
68	0xbe92f548	-0.2870276
69	0xbeb1165f	-0.3458738
70	0x3ec8183c	0.3908099
71	0x3da9f9f1	0.08299626
72	0xbd1a8d95	-0.03773268
73	0xbea8f1bd	-0.32996932
74	0xbe1d5b6a	-0.15366903
75	0x3e7545cb	0.23952405
76	0xbe79d461	-0.24397422
77	0xbe5f95a2	-0.21834424
78	0x3e7436a9	0.23848976
79	0x3e6a1b50	0.22861981
80	0x3e6df90e	0.23239538
81	0x3d81ccd1	0.06337894
82	0xbd22f807	-0.03978732
83	0x3e6ea1f9	0.23303975
84	0xbe3da302	-0.18519214
85	0xbe7e21e9	-0.24817623
86	0x3e5631ec	0.20917481
87	0x3e15fe7e	0.14647862
88	0xbe91fc9d	-0.2851304
89	0x3d3ea8c4	0.046547666
90	0xbeb20168	-0.34766698
91	0xbeba3064	-0.36365044
92	0xbea876ce	-0.3290314
93	0x3d8a7fb9	0.067626424
94	0xbe36ab20	-0.17838717
95	0x3e8e23d3	0.27761707
96	0x3dbb5ec6	0.09148936
97	0xbd8dcc7c	-0.06923768
98	0xbebd71db	-0.37000927
99	0x3db2376e	0.087019786
100	0x3e99b90d	0.30023995
101	0xbd88fc59	-0.066887565
102	0xbeb789a9	-0.35847214
103	0x3cd8104c	0.026374958
104	0x3eb439ba	0.35200292
105	0x3da13465	0.078713216
106	0x3e8e55d6	0.27799863
107	0xbeaec6d0	-0.34136057
108	0xbe1c770a	-0.15279785
109	0xbd4fd404	-0.050739303
110	0xbe1bdc4b	-0.15220754
111	0xbd866841	-0.065628536
112	0xbd062dfe	-0.032758705
113	0x3bd65303	0.0065406575
114	0xbea3c788	-0.31988168
115	0x3e9a5794	0.30144942
116	0x3e4718d2	0.19443062
117	0xbea979b6	-0.3310067
118	0xbe290707	-0.16506587
119	0x3e4a0c25	0.19731195
120	0x3e4ac5fa	0.19802085
121	0x3d40bee4	0.047057047
122	0xbc776b35	-0.015101244
123	0x3e8092e7	0.25112078
124	0xbdd0be2f	-0.10192525
125	0xbe399c21	-0.18125965
126	0x3eb43a1e	0.3520059
127	0x3dae2d62	0.0850475
128	0xbe9ece9d	-0.31017008
129	0x3dfedff2	0.12445058
130	0xbad483e8	-0.0016213628
131	0x3d2065e0	0.039159656
132	0xbe10f037	-0.14154135
133	0x3e87a99f	0.26496598
134	0x3eaf7b08	0.34273553
135	0xbea567a4	-0.32305634
136	0xbe4e0887	-0.2012044
137	0x3c8564e0	0.016283453
138	0x3e2bad7b	0.16765396
139	0x3e922187	0.28541204
140	0xbe3cb475	-0.18428214
141	0xbeb828d3	-0.35968646
142	0x3e949be5	0.29025188
143	0x3e1de426	0.15419063
144	0x3e59b852	0.21261719
145	0x3e1f3dff	0.15550993
146	0x3e5c0fa8	0.21490347
147	0x3ea5b695	0.32365862
148	0x3d3ad4dd	0.04561316
149	0x3deeacd4	0.11654058
150	0xbea8ef88	-0.32995248
151	0x3c5b1b8a	0.013373265
152	0xbe8c2af3	-0.27376518
153	0x3e8431d0	0.25819254
154	0x3e230a1f	0.1592183
155	0x3e99fb91	0.30074742
156	0xbebd9e6d	-0.37034932
157	0x3da86a15	0.082233585
158	0xbe1ee658	-0.15517557
159	0x3e22f2de	0.15912959
160	0x3e055cff	0.13023756
161	0xbe030a13	-0.12796812
162	0x3e167e2c	0.14696568
163	0x3e72916f	0.23688291
164	0x3d75d9a7	0.060022023
165	0xbe98a7da	-0.2981556
166	0x3e89f276	0.26942796
167	0x3e56007d	0.20898624
168	0xbea01ad9	-0.31270483
169	0x3dce1857	0.10063236
170	0xbe6b3ebb	-0.22973149
171	0x3e3a7411	0.18208338
172	0xbe74b866	-0.23898467
173	0x3dfc337b	0.123145066
174	0xbe67eb60	-0.22648382
175	0xbcb2bcc9	-0.021818535
176	0xbe09957c	-0.1343593
177	0xbda15e25	-0.07879285
178	0x3e63ffcb	0.22265546
179	0xbe8efdee	-0.27928108
180	0xbe7ff88e	-0.2499716
181	0xbe6dd459	-0.23225535
182	0xbe3d4e7d	-0.18486972
183	0x3e546d2c	0.20744771
184	0xbeb35270	-0.35023832
185	0xbdf6c0dc	-0.12048504
186	0x3e9cabcd	0.30599824
187	0x3c6e9bfc	0.014563557
188	0x3d7635fe	0.060110085
189	0x3da9df6e	0.08294569
190	0x3b2cfe0b	0.0026396539
191	0xba9d4e05	-0.0012001401
192	0xbe971117	-0.29505226
193	0xbdf2892a	-0.11842568
194	0x3e4f4177	0.20239817
195	0x3e7f3de7	0.24925958
196	0xbe4e04ba	-0.2011899
197	0x3ea3c162	0.31983477
198	0x3c1443ba	0.00904935
199	0xbe132ed1	-0.14373328
200	0x3e9edfcb	0.31030115
201	0x3cdcb64f	0.0269424
202	0x3e44814e	0.19189951
203	0xbe02eaf5	-0.12784941
204	0x3eb44620	0.3520975
205	0xbe26aa68	-0.16275942
206	0xbcb9cc65	-0.02268047
207	0xbe97331a	-0.29531175
208	0xbd6a6d3c	-0.05723308
209	0x3dd517c0	0.104049206
210	0x3df0adf5	0.1175193
211	0xbe75a258	-0.2398771
212	0x3e766158	0.24060571
213	0x3e82df2a	0.25560886
214	0x3e3dde6e	0.18541881
215	0xbe4bc3e5	-0.19898947
216	0xbe9be099	-0.30444792
217	0xbdc114bf	-0.09427785
218	0xbe827ca6	-0.25485724
219	0x3eafecb4	0.34360278
220	0x3e0ed5b0	0.13948703
221	0xbe9c0e7c	-0.304798
222	0x3e0a2f24	0.13494545
223	0xbd6ff8fa	-0.058587052
224	0xbea69c8c	-0.3254131
225	0x3dfb3c8b	0.12267407
226	0xbed358c3	-0.41278657
227	0xbc227d32	-0.009917544
228	0x3e6066e3	0.21914248
229	0xbeb68885	-0.3565103
230	0x3e706ce7	0.23479043
231	0xbcdf33ea	-0.027246434
232	0xbea64f3f	-0.32482335
233	0x3e1ced29	0.15324844
234	0xbebe432a	-0.37160617
235	0xbe3a051c	-0.18166012
236	0xbe87de20	-0.26536655
237	0x3d9e0fa2	0.077178255
238	0x3e01433b	0.12623303
239	0xbe110f0e	-0.14165899
240	0x3e47e003	0.19519047
241	0xbeb32490	-0.34988832
242	0xbe488cce	-0.19584963
243	0x3ea3e3db	0.32009777
244	0xbd4633dd	-0.048389304
245	0x3d5ab432	0.053394504
246	0x3e5fb5bf	0.21846674
247	0x3ea26215	0.31715456
248	0x3e8ba13f	0.27271459
249	0xbeb7f304	-0.35927594
250	0x3dd28dbd	0.10280941
251	0x3ea67475	0.32510725
252	0xbe670594	-0.22560722
253	0x3b8cf7e2	0.004302011
254	0x3dad6ce3	0.08468034
255	0x3df9c7cf	0.121963136

encoder.1.mlp.2.weight f4 [7, 512]
0	0x3d96a6fa	0.07356067
1	0xbd461ca8	-0.048367172
2	0x3d0035ce	0.031301312
3	0xbc0fc8c3	-0.008775893
4	0xbd9ea530	-0.07746351
5	0x3d279eba	0.040922858
6	0xbc3614af	-0.01111333
7	0x3bce694e	0.0062991744
8	0xbd18c1e1	-0.037294272
9	0xbd69d8eb	-0.057091635
10	0xbd064586	-0.032781146
11	0xbc93b9b5	-0.018032888
12	0xbc046e21	-0.008082897
13	0x3d534572	0.0515799
14	0xbbed97f9	-0.0072507826
15	0xbd89ad49	-0.06722505
16	0xba69475b	-0.00088988774
17	0xbd8137a2	-0.06309439
18	0x3d40fac3	0.047114145
19	0xbd86929f	-0.065709345
20	0x3cd41b57	0.025891943
21	0xbba93412	-0.005163678
22	0x3cd992ca	0.026559252
23	0x3bab948b	0.0052362136
24	0x3cb639d3	0.02224437
25	0x3d35fe46	0.044431947
26	0x3d37ac64	0.04484214
27	0x3cfef283	0.031121498
28	0xbd1cf425	-0.038318772
29	0x3d02a273	0.031893205
30	0xbc668431	-0.014069603
31	0x3d8f632a	0.07001336
32	0xbd0d594b	-0.034508985
33	0x3d27108f	0.040787276
34	0xbd1f988c	-0.03896384
35	0x3c45fceb	0.012084226
36	0x3cad13a6	0.021127533
37	0x3b3b0036	0.0028534061
38	0xbc9a2908	-0.018818393
39	0x3aa193f2	0.0012327416
40	0x3c9f6e4a	0.01946177
41	0x3cc96907	0.024586214
42	0xbd27869d	-0.04089986
43	0x3c871903	0.016491419
44	0x3db11fa3	0.08648612
45	0xbb037f23	-0.0020064793
46	0xbd27a3bf	-0.040927645
47	0xbc90912e	-0.017647352
48	0x3d1f8921	0.038949136
49	0x3ce4c275	0.027924756
50	0x3c237208	0.009975918
51	0xbbcdc995	-0.006280134
52	0x3d802367	0.062567525
53	0xbccce224	-0.025010176
54	0xbc9780fe	-0.018494125
55	0xbc9a4cb5	-0.018835405
56	0xbd3c66d5	-0.045996506
57	0xbda9a5c4	-0.082835704
58	0x3d441a4c	0.04787664
59	0xbccf577d	-0.025310272
60	0x3b66b04d	0.0035200298
61	0x3d3227c2	0.043494947
62	0xbcc06901	-0.02348757
63	0x3b1e57b9	0.0024161173
64	0xbbda2a36	-0.006657864
65	0xbb8b23c2	-0.004246206
66	0x3d4cd4b2	0.05000753
67	0x3d84babb	0.064809285
68	0x3ce09ee1	0.02741951
69	0xbdcdf8e0	-0.10057235
70	0xbcda0d43	-0.026617652
71	0x3b8f9008	0.0043811835
72	0x3de9e01b	0.11419698
73	0xbce860f4	-0.028366543
74	0xbd18bc97	-0.03728923
75	0xbb9982f7	-0.0046848017
76	0xbcbcad29	-0.023031788
77	0x3c6a2be5	0.014292692
78	0x3c0b86f1	0.008516059
79	0x39e77bfc	0.0004415213
80	0x3d73f04e	0.059555344
81	0xbc8eebbb	-0.01744639
82	0xbcb48325	-0.02203519
83	0xbbd8ca1a	-0.0066158893
84	0xbc9546cb	-0.018222233
85	0x3c85f385	0.01635147
86	0x39d20745	0.00040059738
87	0x3c07b6da	0.008283341
88	0xbc6dad82	-0.0145066995
89	0x3d968f35	0.07351533
90	0x3d2dea12	0.042459555
91	0xbcadfa66	-0.021237563
92	0x3d80f713	0.06297126
93	0x3d6cfe9c	0.057860002
94	0x3cd824e7	0.026384784
95	0xbd19e1d2	-0.037568875
96	0xbd2cd412	-0.042194434
97	0x3caaaf55	0.020835558
98	0x3bbd45a5	0.0057761245
99	0x383d0093	4.5061646e-05
100	0x3ce44505	0.027864942
101	0xbd36283c	-0.044471964
102	0x3d7339a4	0.059381142
103	0xbc8c2c72	-0.017111037
104	0xbcf00e09	-0.029303567
105	0x3d198f8d	0.037490416
106	0x3c9e4b20	0.019322932
107	0xbbc7a360	-0.006092474
108	0x3d2801bc	0.04101728
109	0x3c95c44c	0.018282078
110	0x3c9aa671	0.018878194
111	0x3cd9574a	0.02653088
112	0x3c5fa573	0.013650286
113	0xbb7b1c5e	-0.0038316469
114	0xbceb5cb3	-0.028730726
115	0x3c4e58c8	0.012594409
116	0x3a98949b	0.0011640968
117	0xbbf57f61	-0.0074919914
118	0xbb40e734	-0.0029434683
119	0xbd3959bf	-0.045251604
120	0x3d2554cf	0.040364083
121	0x3cc3d7ea	0.023906667
122	0xbc86c3b9	-0.01645075
123	0x3b35ea85	0.0027758193
124	0x3b87407c	0.00412756
125	0xbc36746d	-0.0111361565
126	0xbd9216c2	-0.07133247
127	0x3d2f6d46	0.04282882
128	0xbb5e52f6	-0.003392396
129	0x3d253e53	0.04034264
130	0x3bd489af	0.0064861397
131	0x3c082435	0.008309414
132	0xbcae79eb	-0.02129837
133	0xbd02cbc1	-0.031932596
134	0xbcf7f360	-0.030267417
135	0xbd17eb65	-0.037089724
136	0x3d099045	0.03358485
137	0xbcd35b46	-0.025800359
138	0xbcf800dc	-0.030273847
139	0x3cca9efd	0.024734015
140	0xbbb4da54	-0.005519191
141	0xbd1c470e	-0.0381537
142	0xbc77119c	-0.015079882
143	0x3cc0fbb7	0.023557527
144	0x3bb3fcc1	0.005492777
145	0xbce89dda	-0.028395582
146	0x3b812bc9	0.003941987
147	0xbcfc7180	-0.03081584
148	0xbcc8ad98	-0.024496838
149	0xbd69fb49	-0.05712441
150	0xbd2b1bf0	-0.04177469
151	0x3b3f32e6	0.0029174625
152	0x3cacc20d	0.021088624
153	0xbc869d71	-0.016432496
154	0xbd1b4a01	-0.037912372
155	0x3c5918bb	0.013250525
156	0xbd73879e	-0.059455507
157	0x3c62cae6	0.01384232
158	0xbd2e635e	-0.042575233
159	0x3b43e951	0.0029893706
160	0x3c241056	0.01001366
161	0xbcedb100	-0.029015064
162	0xbd400b71	-0.04688591
163	0x3d8c93fa	0.06864162
164	0xbce7b6d3	-0.02828542
165	0xbd10475f	-0.035224315
166	0x3c123f0f	0.008926167
167	0x3d6f2f86	0.05839493
168	0xbd132368	-0.035922438
169	0xbd683f97	-0.05670127
170	0x3cb0c3e4	0.021577783
171	0xbd3e3af8	-0.046442956
172	0x3c91e107	0.017807497
173	0x3dba97fd	0.09111021
174	0xbd0e8cb0	-0.03480214
175	0x3d113de9	0.035459433
176	0xb8f23da9	-0.00011550944
177	0x3c0746ae	0.008256597
178	0x3d323022	0.043502934
179	0x3b8778e1	0.004134283
180	0x3c3d80a6	0.011566317
181	0x3db075ea	0.0861624
182	0xbccc0ccb	-0.024908444
183	0x3d44c379	0.04803798
184	0xbb814e7d	-0.003946124
185	0x3c7b6bf0	0.0153455585
186	0xbaf3c656	-0.0018598537
187	0xbc4b1a77	-0.012396446
188	0x3d1a086d	0.03760569
189	0xbcd0da2d	-0.02549466
190	0x3d06bdc9	0.032895837
191	0xbc823040	-0.015892148
192	0x3b4e1bad	0.0031449602
193	0xbd40176c	-0.046897337
194	0xbce6bff9	-0.028167712
195	0x3c99800b	0.018737813
196	0xbd2d1ca1	-0.04226363
197	0x3d90a0d2	0.07061924
198	0x3ca8dd40	0.020613313
199	0xbc9b1276	-0.018929701
200	0x3cb24a19	0.021763848
201	0xbcdca985	-0.026936302
202	0x3d6fa812	0.058509894
203	0x3c5ca84f	0.013467862
204	0x3cb77631	0.022395225
205	0x3c4a0c39	0.012332016
206	0xbcf8275d	-0.030292207
207	0xbc936f1d	-0.017997319
208	0x3c320d98	0.010867499
209	0xbc2a2bd6	-0.010386428
210	0xbc344c83	-0.01100457
211	0xbc268423	-0.01016334
212	0x38abeda3	8.198179e-05
213	0xbb76be7c	-0.0037650159
214	0xbcd52cd9	-0.026022362
215	0xbd50f2e5	-0.051012892
216	0xbd6a961d	-0.057272065
217	0x3dc19051	0.09451354
218	0x3d2c6535	0.042088706
219	0xbcd36e88	-0.025809541
220	0xbc99aec4	-0.018760093
221	0x3d6292f3	0.055315923
222	0xbce1d6b6	-0.027568202
223	0x3d377df5	0.044797856
224	0x3d51b061	0.0511936
225	0x3d242d94	0.04008253
226	0x3b070920	0.0020604804
227	0xbc650f49	-0.013980695
228	0xbd3749b5	-0.044748027
229	0x3d376792	0.044776507
230	0xbc3e2000	-0.011604309
231	0xbd327784	-0.04357101
232	0xbd0b2608	-0.033971816
233	0x3d03e125	0.032197136
234	0x3c96865b	0.018374613
235	0x3c9a98b9	0.018871652
236	0xbd30ac4a	-0.043133058
237	0x3c60f741	0.013730825
238	0xbca4771e	-0.02007633
239	0xbcd0c8c6	-0.025486361
240	0x3da20067	0.07910233
241	0x3c41701d	0.011806515
242	0x3c23f2df	0.010006635
243	0xbc1a4d94	-0.00941791
244	0xbc39960e	-0.01132728
245	0x3b817ca9	0.003951628
246	0x3d41c570	0.04730743
247	0xbc85620c	-0.016282104
248	0x3c6fd3e4	0.014637921
249	0x3d6184ee	0.055058412
250	0xbd1ca34e	-0.038241677
251	0x3c546e92	0.012965815
252	0x3ce8b981	0.028408768
253	0xbbd298c7	-0.006426904
254	0x3c59e8f9	0.013300174
255	0xba28464d	-0.0006419167

encoder.1.mlp.2.bias f4 [7]
0	0xbc2b7070	-0.010463819
1	0xbb90cbe0	-0.004418835
2	0xbceb0de0	-0.02869314
3	0x3bce33e5	0.0062928074
4	0xbcaad8d3	-0.020855343
5	0x3d8e2388	0.06940371
6	0x3d5cb525	0.05388369

encoder.1.norm_1.weight f4 [7]
0	0x3f5ad239	0.85477024
1	0x3f80ff81	1.0077974
2	0x3f8a2295	1.0791804
3	0x3f78b412	0.97149765
4	0x3f7b8555	0.98250324
5	0x3f868718	1.0509977
6	0x3f806cd3	1.003321

encoder.1.norm_1.bias f4 [7]
0	0x3d05f74f	0.032706555
1	0xbc359cd9	-0.011084759
2	0xbd3d7c07	-0.04626086
3	0xbab158dc	-0.001353051
4	0xbcbf4869	-0.023349958
5	0x3d0403c6	0.03223016
6	0x3d1ca561	0.038243655

encoder.1.norm_2.weight f4 [7]
0	0x3f775cc9	0.96625954
1	0x3f7ed1dd	0.99538976
2	0x3f8cba21	1.0994302
3	0x3f8626bf	1.0480574
4	0x3f84f122	1.0386088
5	0x3f857cce	1.0428712
6	0x3f795353	0.9739277

encoder.1.norm_2.bias f4 [7]
0	0x3ca563b9	0.020189153
1	0xbc9d6447	-0.019212855
2	0xbc4162bb	-0.011803324
3	0xbca408f6	-0.020023804
4	0xbd1dc05e	-0.038513534
5	0x3d4b3dd5	0.049619514
6	0x3c9c98ed	0.01911589

projection.weight f4 [4, 126]
0	0x3c991e9b	0.018691352
1	0xbd4b8a55	-0.04969247
2	0xbd718340	-0.05896306
3	0xbbb05af9	-0.0053819385
4	0xbaadbc53	-0.0013254978
5	0xbb1eabea	-0.0024211355
6	0x3cf464f6	0.029833298
7	0xbcd1b663	-0.025599664
8	0xbc3d10b1	-0.011539624
9	0x3b24d887	0.0025153474
10	0xbcd0e424	-0.02549941
11	0x3ce00f35	0.027351001
12	0xbd4d9b4e	-0.05019694
13	0xbbbd0d34	-0.005769396
14	0x3b26d70c	0.0025457768
15	0x3c3f39b9	0.011671477
16	0xba7522b0	-0.0009351177
17	0xbd1dc57b	-0.03851841
18	0xbd231923	-0.039818894
19	0xbbe48ea5	-0.0069750124
20	0x3ceba406	0.028764736
21	0xbd51b10b	-0.051194232
22	0xbc97c7c5	-0.018527875
23	0xbc70949f	-0.0146838715
24	0x3bcbead8	0.006223064
25	0x3c9150ab	0.01773866
26	0xbd84822c	-0.06470141
27	0xbd5a948f	-0.053364333
28	0xb79f764e	-1.9009367e-05
29	0x3cc4ae94	0.024009027
30	0x3c9d51a6	0.019203972
31	0x3b26569f	0.002538122
32	0xbd13485e	-0.035957687
33	0x3c984d75	0.018591622
34	0xbb301b24	-0.0026871646
35	0xbc716a73	-0.014734852
36	0xbd194322	-0.03741754
37	0x3c2b47ce	0.010454131
38	0x3b8ae150	0.004238285
39	0xbca9b09b	-0.020714095
40	0xba390234	-0.0007057518
41	0xbcf196e9	-0.029490905
42	0xbbe5e2b3	-0.00701555
43	0x3c9e90ef	0.01935622
44	0x3b9f4c5d	0.004861398
45	0xbd3605ed	-0.044439245
46	0x3c0a4c95	0.00844111
47	0xbd4218b9	-0.04738686
48	0x3bb3b041	0.0054836576
49	0xbd325bdd	-0.04354464
50	0x3ce1d3ad	0.027566755
51	0xbcd55ff3	-0.026046729
52	0xbd1bd84c	-0.038048074
53	0xbb8245e8	-0.0039756186
54	0x3c43f207	0.011959559
55	0x3cc37f51	0.02386442
56	0x3c271dd5	0.010199984
57	0xbcadfcc4	-0.021238692
58	0xbc6ffd7e	-0.01464784
59	0x3befb398	0.0073151104
60	0xbd10eb4b	-0.035380643
61	0x3c990107	0.018677248
62	0x3cccfd27	0.025023056
63	0xbd161561	-0.036641482
64	0xbc5d8a2f	-0.013521715
65	0xbc437330	-0.011929318
66	0x3b6b4928	0.0035901759
67	0xbd0dce24	-0.03462042
68	0x3bedb98a	0.007254784
69	0xbd0da643	-0.034582388
70	0xbc352074	-0.011055101
71	0xbc72cccf	-0.014819338
72	0x3c96ddda	0.018416334
73	0xbd37ae7f	-0.044844147
74	0xbb87d04d	-0.0041447044
75	0xbcecad5a	-0.028891254
76	0xbb81eeea	-0.0039652484
77	0xbb4d87d4	-0.0031361477
78	0x3c64d763	0.013967368
79	0xbc1dff3e	-0.009643374
80	0x3d1927d9	0.037391517
81	0xbc844c6c	-0.016149722
82	0xbd28d0ef	-0.04121488
83	0xbb8eb285	-0.0043547773
84	0xbbc7702e	-0.006086371
85	0xbbb87495	-0.005629132
86	0xbcbf97c5	-0.023387799
87	0xbcdb52a4	-0.026772805
88	0xbbdfbbc5	-0.006827804
89	0x3cbaa1b9	0.022782193
90	0xbb8b64c1	-0.004253954
91	0xbd0d492c	-0.03449361
92	0x3c85fdaa	0.016356308
93	0xbd570b1f	-0.05250084
94	0x3b388311	0.0028154294
95	0xbd286aa8	-0.04111734
96	0x3c8cb416	0.017175715
97	0xbd382844	-0.044960275
98	0x3c815e6f	0.0157921
99	0xbd758f95	-0.059951384
100	0xbd34e537	-0.04416391
101	0x3d00ec54	0.03147538
102	0xbd311b26	-0.04323878
103	0x3cc09aa7	0.023511244
104	0xbc0955c2	-0.008382263
105	0x3bc5e45c	0.0060391854
106	0x3b8c9cf2	0.0042911703
107	0xbd7d60e1	-0.06185997
108	0x3d08156f	0.033223566
109	0x3ca2de21	0.01988131
110	0xbcd44013	-0.02590946
111	0xbd06704b	-0.032821935
112	0x3d5e3a4b	0.05425481
113	0xbc3a7b3c	-0.01138192
114	0xbd13235d	-0.035922397
115	0xbd1bbb50	-0.038020432
116	0x3cc3e8c3	0.0239147
117	0xbd42b647	-0.047537114
118	0xbc0d2f59	-0.008617246
119	0x3d98d170	0.07461822
120	0xbcb61c75	-0.022230366
121	0x3d98cd5b	0.074610434
122	0x3dd88230	0.10571706
123	0x3e24b49a	0.16084519
124	0x3e72638e	0.2367079
125	0x3ef1bd1d	0.47214594
126	0xbbd536e0	-0.0065067858
127	0xbd89886c	-0.067154735
128	0xbb6eb405	-0.0036423218
129	0xbc88f232	-0.01671705
130	0x3c328a68	0.010897256
131	0xbd032a69	-0.032022867
132	0xbd0a6f28	-0.033797413
133	0x3d0113d9	0.03151307
134	0x3cd28e96	0.025702756
135	0xbc27a934	-0.010233212
136	0x3cab3574	0.020899512
137	0xbd4a1e37	-0.04934522
138	0xbca67b40	-0.020322442
139	0x3b72190f	0.0036941206
140	0x3c234522	0.009965213
141	0xbc894ee9	-0.01676126
142	0xbc7bb1bb	-0.015362198
143	0xbb79abd2	-0.0038096798
144	0xbcee8e24	-0.029120512
145	0xbc689659	-0.014196002
146	0x3a569042	0.0008184948
147	0xbce336c3	-0.027736073
148	0x3c189c81	0.009314657
149	0xbcfa162b	-0.030528149
150	0xbd16bbed	-0.036800314
151	0xbce33637	-0.027735813
152	0xbc50caac	-0.012743633
153	0xbd18ccca	-0.037304677
154	0xbb915413	-0.0044350713
155	0x3cb6fb68	0.022336677
156	0xbc8be753	-0.017078077
157	0xbcccdb10	-0.0250068
158	0x3d41efb5	0.047347743
159	0xbc57c380	-0.013169169
160	0x3bf4c5ef	0.0074698846
161	0xbcc94392	-0.024568353
162	0x3c3bf86e	0.0114728045
163	0xbd0d9882	-0.03456927
164	0xbc3384c0	-0.010956943
165	0xbc96ec6b	-0.01842328
166	0x3cb84cb8	0.02249752
167	0xbd189556	-0.037251793
168	0x3c4e2a0f	0.01258327
169	0xbcbee898	-0.023304269
170	0xbb36a0d5	-0.002786686
171	0xbc1664f2	-0.009179341
172	0xbcd4f1a4	-0.02599413
173	0x3ccfb4cc	0.025354765
174	0xbd170cc7	-0.03687742
175	0xbc273325	-0.010205065
176	0xbd24b229	-0.04020897
177	0xbd4e2567	-0.05032864
178	0x3ca0ccb6	0.019628864
179	0xbd1cf954	-0.038323715
180	0x3ce3eef1	0.027823897
181	0x3d06fdf3	0.03295703
182	0xbcd2ca6c	-0.025731288
183	0x3cca198d	0.024670387
184	0xbbe008ec	-0.006837001
185	0x3c5208c7	0.0128194755
186	0xbd3c0397	-0.04590186
187	0x3ca262e1	0.01982254
188	0xbd2ce040	-0.04220605
189	0x3d0f6a5a	0.035013534
190	0xbbced7fc	-0.0063123684
191	0xbcff7f1e	-0.031188544
192	0x3be4d1fd	0.0069830404
193	0xbcf48bfb	-0.029851904
194	0xbc423e1e	-0.01185563
195	0xba3c857c	-0.00071915216
196	0xbd04db33	-0.032435607
197	0xbd1cdb8b	-0.03829531
198	0x3bc9dc8a	0.0061603235
199	0x3c11eeaf	0.008907004
200	0xbc188b7c	-0.009310599
201	0xbd40e1cc	-0.047090337
202	0xbd6b052e	-0.057377987
203	0x3c57d9de	0.013174502
204	0x3d34dcaf	0.044155773
205	0xbccf9a12	-0.025342021
206	0x3d6925c5	0.056920785
207	0xbd0adac8	-0.033900052
208	0xbcd30c8e	-0.025762822
209	0xbc1d6cf6	-0.009608498
210	0x3d208876	0.03919264
211	0xbd8d9de5	-0.069148816
212	0xbcfed4a5	-0.031107256
213	0x3d00b9d8	0.031427234
214	0x3c16164d	0.00916059
215	0xbca05462	-0.019571487
216	0xbd049cbc	-0.032376036
217	0x3cab0434	0.020876028
218	0xbd90696a	-0.07051356
219	0x3c147bda	0.009062732
220	0x3b5c8f6a	0.0033654817
221	0xbd2a923e	-0.041643374
222	0xbd10e16e	-0.035371237
223	0x3c244180	0.010025382
224	0xbd8455d2	-0.064616814
225	0x3caf3969	0.02138968
226	0xbd455c5d	-0.048183788
227	0xbd927a7e	-0.0715227
228	0xbaaf0772	-0.0013353659
229	0x3c56e83c	0.013116892
230	0x3d536eaa	0.05161921
231	0xbc0aab3f	-0.00846368
232	0xbc9e54d8	-0.019327566
233	0x3d07ed2f	0.03318518
234	0xba7c695f	-0.00096287386
235	0xbc96948d	-0.018381381
236	0xbcb5816b	-0.022156438
237	0xbca1525a	-0.019692589
238	0x3d7e9879	0.062157128
239	0xbbf56630	-0.0074889883
240	0xbcf70c58	-0.030157253
241	0xbd467c21	-0.048458222
242	0x3ba0e68c	0.004910296
243	0x3c8c3a28	0.017117575
244	0xbd6fb34e	-0.058520608
245	0x3d2f084e	0.04273253
246	0x3d04c253	0.032411885
247	0x3d84f992	0.06492914
248	0x3d7887fb	0.060676556
249	0x3de97138	0.11398548
250	0x3ead09e1	0.337966
251	0x3ed0a68f	0.40752074
252	0xbc53de9f	-0.012931495
253	0x3c75549a	0.014973784
254	0xbd5d3c9f	-0.05401289
255	0xbd687771	-0.056754533

projection.bias f4 [4]
0	0x3c8941a0	0.016754925
1	0x3c37a1af	0.011207982
2	0x3c6d4075	0.0144807
3	0x3cb75d59	0.022383379

norm.weight f4 [7]
0	0x3f800000	1.0
1	0x3f800000	1.0
2	0x3f800000	1.0
3	0x3f800000	1.0
4	0x3f800000	1.0
5	0x3f800000	1.0
6	0x3f77a3ff	0.96734613

norm.bias f4 [7]
0	0x00000000	0.0
1	0x00000000	0.0
2	0x00000000	0.0
3	0x00000000	0.0
4	0x00000000	0.0
5	0x00000000	0.0
6	0xbc47d24c	-0.012196135

rev.affine_weight f4 [7]
0	0x3f645fac	0.89208484
1	0x3f799742	0.97496426
2	0x3f7faf4b	0.9987685
3	0x3f7a82a8	0.97855616
4	0x3f78b98c	0.9715812
5	0x3f581a05	0.844147
6	0x3f8a5537	1.0807256

rev.affine_bias f4 [7]
0	0x3dc9707b	0.09835907
1	0xbd48fccd	-0.049069215
2	0x3ddffb1e	0.10936569
3	0xbdd6c90a	-0.10487564
4	0xbe046e65	-0.12932737
5	0x3ea11853	0.3146387
6	0x3c8a7578	0.016901717
